src/Weights and Biases/bias_layer_2.npy (npy, 1152 bytes, 1 tensors)

array f8 [128]
0	0x3fb510a968a38b80	0.08228548817309722
1	0x3f879d1af748572e	0.011530123397317373
2	0xbf3a28f5c28f0e7e	-0.00039916992187392214
3	0x3f928d354f61f036	0.018116791696670208
4	0x3f68dd88793c70c4	0.0030353227138118794
5	0xbfa21ce941fc27c4	-0.03537682466965422
6	0xbf75c4720104027d	-0.005314297988889491
7	0xbf8b139935c276fa	-0.013220974877465864
8	0x3f8f6c0c391ef184	0.015342803471747109
9	0xbf729886de043e79	-0.00453999216576017
10	0xbf578140bebd2db0	-0.001434624889003238
11	0x3f4037f2a6bbbc70	0.0004949507542430075
12	0x3f72cb1b8301c5f4	0.00458822962547022
13	0x3f9eaeb4020e0a87	0.029963314652841546
14	0x3f8c1e9e0453a102	0.01373027277664152
15	0x3f8ef4fa8db4e450	0.015115697335760597
16	0xbf9c234d2bdc28c2	-0.02747841434669663
17	0x3f7aae0ca0a17fc5	0.0065136426220248666
18	0x3f3b1401b4c325a9	0.0004131797948159996
19	0x3fadf0ff66d570f4	0.05847929125113352
20	0x3fb2661924104352	0.07187039499718864
21	0xbf827595beb41d71	-0.009013337976752496
22	0xbf820e8b3f9bbf2e	-0.008816802862810027
23	0xbf608fa97b1d6d56	-0.0020216283964324218
24	0xbf7425957301c3c4	-0.0049186551915320655
25	0x3fadb790ca45310b	0.05804111928100227
26	0x3f71582c374bab35	0.004234478682273492
27	0xbf84b5da856c5f75	-0.010112483212239213
28	0x3fbb90e3cf46b04f	0.10767959413959825
29	0xbfa984fcf4b0b36d	-0.04984274374905948
30	0x3fc1788bc5abcae7	0.13649127151401005
31	0x3fb0472a82bda54f	0.06358590785898353
32	0xbfa39d4357177bf4	-0.0383091968358186
33	0xbf97c34bc425c0c3	-0.023205932471171985
34	0xbf8171430bd611f7	-0.008516811178886903
35	0xbfb786b8a8c2fa8f	-0.09189943428189394
36	0x3f9a11f46cece8fc	0.02545911707714142
37	0x3f9292a88c47b5cc	0.018137582361239343
38	0xbf92a0fe656abfd7	-0.018192267360688987
39	0xbf981a8c4700d306	-0.02353877242440474
40	0x3f66e1b88a8d74c6	0.002793178970405738
41	0x3fbeb8dcca710533	0.12000827734393198
42	0xbfb56f1d884ae345	-0.08372673585371355
43	0x3fb4a77bcfa7e9f2	0.08068059749340487
44	0xbfc17d5d0040bc83	-0.136638283847308
45	0xbfa9d54c8b11a132	-0.050455467201404494
46	0x3fbf9d13acf454f8	0.12349055264015252
47	0x3f994761e245bf76	0.02468636458928538
48	0xbf67886d26e6b789	-0.00287267035238065
49	0xbf8961dad7b40864	-0.012393674571743847
50	0xbfaa06088c3516d0	-0.05082728110805379
51	0xbfa75e04e1c3496b	-0.04563918357748061
52	0x3fb8bf490577a11c	0.09666878112296157
53	0xbf72677893a96cde	-0.004493208888187909
54	0x3f84e0e62a50dc88	0.010194585958841054
55	0x3faade8a8f930bb4	0.05247910502068667
56	0xbf6a9a1d33a9f89c	-0.0032473154399773174
57	0x3f7977a8b9fabd21	0.006217631423779652
58	0xbfb431088f63664b	-0.07887319088640614
59	0x3f71ad10d46aeee2	0.00431543897746753
60	0x3f7cdca0d3e8b707	0.0070463449797395555
61	0x3facee2a7bac8b5d	0.05650456199352647
62	0xbf8e635f7cfcf0ea	-0.014837976457436192
63	0x3f9cb89aa1c6b038	0.02804795849230876
64	0x3f3375f8c9507ea2	0.0002969486607202564
65	0x3fa058ce017e684c	0.03192752617106062
66	0x3f882eb0b5d6939a	0.011807804631482278
67	0x3f61de8d84c71685	0.0021813167606719607
68	0x3f86425c9da5618c	0.010868762551283571
69	0x3fadd85c4711b48e	0.05829132430594895
70	0xbf81f7c64675b63c	-0.008773373627913299
71	0xbf9890d885d5d25b	-0.0239900428473042
72	0x3fb17a9e62c640c1	0.06827726279721259
73	0x3faeadeae158fdb7	0.05992063523126084
74	0xbf7287922f6ec072	-0.0045238218653339424
75	0x3fa329149ee091ea	0.037422794717972455
76	0x3f3271c7afbc8121	0.00028144002111398127
77	0x3f91bc8bf74c4c83	0.017320811241984046
78	0xbf76d35bbab7f6c5	-0.005572660749292251
79	0xbf9c8346b5f7cd1c	-0.02784452901501054
80	0x3fa4aa6a6958f8c6	0.040362668380554065
81	0xbfb60eefedee0490	-0.08616542395431481
82	0xbf7b1f3467fdbb43	-0.006621556007174348
83	0xbf462ac4d9067a69	-0.0006764851732901758
84	0xbf3a6a741163cfb8	-0.0004030736321418665
85	0x3f8a33f66804a6c7	0.01279442315042746
86	0x3f9cd80b62932ee4	0.02816789425996448
87	0xbf3adc765964d996	-0.00040986909279485653
88	0x3f846d07fb4aa659	0.009973585468588885
89	0x3f9a9aa422cf9a9e	0.02598053419560619
90	0xbf9eafe5b1008a3b	-0.02996786969027652
91	0xbf8d04930891e192	-0.014168881129294406
92	0xbfb09a1ee51c6947	-0.06485169499902553
93	0x3faeee754bed3475	0.0604130416091743
94	0x3fb2a3dc4866d9f2	0.07281281249638719
95	0x3f9358f58a7f21c0	0.01889403970543113
96	0xbf7c5e97ea4b4626	-0.006926148814004251
97	0xbfacb5d736bc3b6c	-0.05607483428149504
98	0x3fa814b60d8660e4	0.047033013487807
99	0xbf7d1634328961da	-0.007101253410461495
100	0x3fa236fba39535be	0.03557573673115709
101	0x3f97728ed1bc9df6	0.022897941161458456
102	0x3fafc8ecb7713c89	0.06207980860983137
103	0x3fa0f062a40cd022	0.03308399441303346
104	0x3f9a4d3d5ad00c3b	0.02568527094628002
105	0x3fc07412df8ab22b	0.12854228892446548
106	0x3f44b274b0ab15a4	0.0006316251541071305
107	0x3f42868b236a06ea	0.0005653552423867368
108	0x3fad697578d13a31	0.057445212362484795
109	0xbfafb691dbb71b08	-0.06193977171965598
110	0x3f7416726bb1c67d	0.00490421958521525
111	0xbfa94f3d896383f3	-0.049432681103787866
112	0x3faf7056809914fe	0.06140394515800017
113	0xbf97f3dc1507ac99	-0.023391188415115314
114	0x3fb200853f32bc17	0.07032044213222864
115	0xbf7dfab4119cdcf5	-0.00731916751265448
116	0xbf93a95bd0f69f72	-0.019200739506828275
117	0xbfac3391ca0e1b6a	-0.055080943980150135
118	0x3f908d4fc0c024f7	0.01616406072574691
119	0x3f845e935aef6ae4	0.009946013653395487
120	0x3fb9f0d297f9bcc7	0.10133091173496488
121	0xbfa590acfe1d9188	-0.042119413394888616
122	0x3f9422348c808f87	0.019661732745717166
123	0x3faf354e300d3a92	0.060953563085253695
124	0x3fb87c29caff6917	0.09564458089827031
125	0x3fa3fd33ea1fb166	0.03904115899044562
126	0x3fa0184e7b4452d2	0.03143544440005076
127	0x3fa46e01ac013270	0.039901783224739584
