src/Weights and Biases/bias_layer_0.npy (npy, 4224 bytes, 1 tensors)

array f8 [512]
-0.005547438185894141 0.019545910305454 0.03196951553844059 0.023558643733605864 0.05486490955703147 0.040045646814507056 0.08618367251275706 -0.018964197551896596
0.02397565624784744 0.027283953346162623 0.03214969300664452 0.02205757328423166 -0.00232248339677146 0.06523529530704908 0.03647899399823969 0.053862819890668524
0.01064284502591728 -0.011632226960434778 -0.004884453270842413 0.01612129238705286 -0.01762092637919311 0.01445602982926469 -0.0647939389927148 -0.027427678361647674
0.04821932594636416 0.05509573192167686 0.005900642183426478 0.029426791245432158 0.06704958421616718 -0.0025125690517837805 0.05011024419462276 0.04561623610311293
0.04047006263495554 -0.008727989316654658 -0.10608821404814714 0.08904534757274354 0.10154143282335552 -0.02898915650899233 0.020057519981558535 0.03293554481458149
-0.02683806125665732 -0.017999438339226223 0.014790589112385146 0.06217177375225123 -0.02198492875422361 0.05453259563258715 0.0675821067320002 0.006542209198667016
0.05287829801457292 0.0117422333626429 -0.0017010051152880703 0.06547320997962511 -0.04978446072660179 -0.028828018684927584 -0.0035734977674261657 0.017044757358802277
0.02585934704332218 -0.04273756758782432 -0.013301057455108402 -0.009613333554191703 0.036071134735688584 0.009469937085372396 0.01853907732679235 0.018175291014347818
-0.060533069076269076 0.003753976033850323 -0.013654657284228797 0.012263485496205939 -0.011325874620335864 -0.02375955007978671 -0.02031600530960931 0.00042529749732995607
-0.0026208044867972037 -0.011083918323918559 -0.048934559682106075 0.014081011955944238 -0.008535198182903242 -0.04415926368032225 0.0027624062353222394 0.006215665906597468
-0.016198727365779774 -0.01602167113794968 -0.12419339698667835 0.03503129013432347 0.03224935200154341 0.039357030562863264 0.05033343349794901 0.031130539267170448
-0.09805082019663897 0.015162934861686617 0.024461016867321602 0.007613148173429932 -0.029712836069374998 -0.01669822694697302 0.011563908957383004 0.08371002277846429
0.009304434402163378 0.01594423503321234 0.01737257838807615 -0.03903997793990245 0.028033987819303843 0.06357163243467824 0.02411668319947873 0.04047987771213043
0.030627732471364508 0.11874617869089633 -0.017751134932694295 0.022963879452807576 0.04181356785623972 0.0441638064324914 0.0006319130912790997 0.019440936420838384
0.04397889131296163 0.03702515942597418 0.046052395082311674 -0.10549797471371304 0.015271977103353929 -0.014514079702269573 0.021390261057540674 -0.004523077002950466
0.0066127627505767695 0.05570977831885308 0.018701875479596636 -0.0758726301261852 0.04049962451445378 0.04735554106292077 0.060981596137932095 0.06448076794043799
-0.0254437315615768 -0.03143071428288492 0.03083897829039969 -0.09851239018023769 0.0847350591300415 0.012522118652317572 0.03942620895908304 -0.008311245031321217
0.004019533282647779 0.017990570123552478 0.027503200073944748 0.05726076219384066 0.014678999465952526 0.0071896114282888526 -0.019619366376909496 0.02431683566913771
0.01377749516762976 0.10187869830253422 0.013862061886058366 0.06009080494093225 0.04433655660250282 0.01584025791697075 -0.012491219242739713 0.008021186924886497
-0.0019084309836288277 -0.041524434691016875 -0.00815911542284923 0.03283225235942435 0.03401546754379994 0.02671881022276666 -0.00396855166440427 0.0021730397155928865
0.014249296933174308 0.05583490316128535 -0.039275775692949044 0.05204166881008059 0.016505533690191778 0.021396953922258103 0.0023260197206614766 0.030584207679875266
0.01650904379737748 0.0005059895078893269 -1.8569661611259056e-05 -0.1336829725142204 0.017423051793182195 0.014145070224563742 -0.024055672535575265 0.01926062826315246
0.02279236112616272 -0.003369098656776699 0.05477264918002585 -0.005019382701941813 -0.10217243425701183 0.045429966317551945 0.03532437766326155 0.022966870093377886
0.040712927964878694 0.003370972112003336 0.021079339256366125 -0.04225043820906776 -0.06915066511831251 0.05467258438444921 0.06163288074424418 0.01956764701505201
0.027340925290373738 0.11408917664285836 0.02614282849430102 0.04402137109942597 0.0470108910407395 0.028166983728424737 0.02143207269203308 -0.023291107900276307
0.09338428804469197 0.014509110977524236 0.011042864290432783 0.05344342839671406 0.062008989876526456 -0.014316331123140529 0.011133678009301963 -0.05716126821115517
-0.0012951329355712375 -0.00758369176768635 0.08766658409844441 0.023524987066010333 0.05248601265109881 0.0361460593599854 -0.004617464251610676 0.00654475612174657
0.031450159565129795 0.04214993122001458 0.033573570211759864 -0.13085593188000885 -0.007111342396660861 0.01015211206100095 0.0632795690851555 -0.11418550759218918
0.03814933216588218 0.009086286048072266 0.042331041817099874 0.009316961693169453 0.07896153411051184 -0.06826255788360218 7.072882921477698e-05 0.0028717779831212813
0.042889563968245524 0.02621798436677068 -0.029475647124506673 -0.0159719826775391 0.014602504572640385 -0.011285942217646292 -0.003617072506928977 0.005333800927118316
-0.11674092255866285 -0.056331866451593715 0.076382930065915 0.07100398296041788 -0.01147068200876947 -0.013703828486001315 -0.05064360445695373 0.04539549763496542
0.005126635559653394 -0.24241637644739994 0.04290671820431533 -0.07002255760867902 -0.016038438342899666 0.028265205905019533 -0.01656673575975351 0.010199119418010858
00000000: b725 5c19 e9b8 76bf f140 21d6 d703 943f
00000010: 0ac3 69ef 4e5e a03f 69ed 7ed1 c11f 983f
00000020: 5dab 7de0 4017 ac3f 0fb9 d4ee dc80 a43f
00000030: 1937 e416 2210 b63f 7f01 1fc1 596b 93bf
00000040: 3546 f00d 138d 983f ff36 4f1d 53f0 9b3f
00000050: 0378 14b0 ec75 a03f c722 8aaf 4296 963f
00000060: 3924 82c7 9906 63bf 6880 e3a3 42b3 b03f
00000070: 5a45 6dec 5fad a23f 5d30 cd53 e893 ab3f
00000080: 80e9 947a eacb 853f 8d6b ff12 a3d2 87bf
00000090: 7eea e970 b801 74bf 855d 499e 1982 903f
000000a0: 426e 185a 380b 92bf 9e06 c67a 1f9b 8d3f
000000b0: 10e6 f3e8 5596 b0bf 9220 4656 0016 9cbf
000000c0: c418 f317 34b0 a83f 156d 81fd 8135 ac3f
000000d0: 1e5e 4093 452b 783f 69f5 1988 0e22 9e3f
000000e0: d338 6b5b 292a b13f 26d8 003d 3d95 64bf
000000f0: 745d 05c8 0ca8 a93f ff7e 75e4 025b a73f
00000100: cde9 f7f6 7db8 a43f cb21 66e5 fadf 81bf
00000110: 4eed d3e1 9828 bbbf 4296 af07 adcb b63f
00000120: a350 2a8d 9efe b93f b638 945c 55af 9dbf
00000130: d34a 7061 f589 943f 2f8a b57f eddc a03f
00000140: 1da3 8acd 6f7b 9bbf 5caa 0ddc 716e 92bf
00000150: eecb 3544 874a 8e3f 2e1e 008e fad4 af3f
00000160: 1762 0498 3783 96bf 2eac 9d45 b2eb ab3f
00000170: d36e 359a 0f4d b13f 9b70 d4e8 00cc 7a3f
00000180: 150e 4841 dd12 ab3f fc47 32e2 4f0c 883f
00000190: a59a ca55 88de 5bbf de6a a02f dac2 b03f
000001a0: 9de9 564d 597d a9bf 6449 d795 1785 9dbf
000001b0: 8fbb 6301 2b46 6dbf 9d7e b24d 2e74 913f
000001c0: 874f 6367 df7a 9a3f e059 33ce b2e1 a5bf
000001d0: e1dd 2cb6 953d 8bbf 052f c4c9 27b0 83bf
000001e0: c2ed 0970 ea77 a23f 9564 9d70 f964 833f
000001f0: b62f 446b e8fb 923f caf3 0122 8b9c 923f
00000200: bda6 04c0 30fe aebf 2d8c 7389 a8c0 6e3f
00000210: 5272 ca13 f9f6 8bbf 4620 2129 991d 893f
00000220: c756 be28 0532 87bf 84ce 3d6a 6c54 98bf
00000230: 607f 8f09 b8cd 94bf b70c 94d7 4edf 3b3f
00000240: 9f8d ebb1 3978 65bf 51be b355 2ab3 86bf
00000250: 0726 f55a f30d a9bf fc4e c36e 81d6 8c3f
00000260: 30cc 7be8 e67a 81bf d814 a502 0b9c a6bf
00000270: 5816 0c8e 2fa1 663f dacb aa1c 9975 793f
00000280: 8364 1731 6696 90bf b450 4226 fc67 90bf
00000290: 8bda 6f72 23cb bfbf dd5d ed0a 9fef a13f
000002a0: 5ce0 53b0 fc82 a03f 0735 45ce 9a26 a43f
000002b0: 1ac5 89c5 4dc5 a93f dbc3 3c20 afe0 9f3f
000002c0: ac2d 17ca db19 b9bf 7a13 bdaa be0d 8f3f
000002d0: 3f61 e30d 4f0c 993f 6aaf cae6 f62e 7f3f
000002e0: 78eb c1ac 0a6d 9ebf ebc1 8d0a 5719 91bf
000002f0: 387c 4996 d1ae 873f b850 2e22 056e b53f
00000300: 1b76 b80b 340e 833f ad0a 1c80 af53 903f
00000310: 1f8f 1800 1eca 913f 2215 fa48 0cfd a3bf
00000320: 7405 7113 f1b4 9c3f 71a1 4202 3b46 b03f
00000330: 2dde 8436 0bb2 983f 3be0 d64d c7b9 a43f
00000340: 1cb6 4255 e05c 9f3f 719b 004a 2666 be3f
00000350: 5bdf 0280 5a2d 92bf 4cd5 f4dc d783 973f
00000360: 0579 f184 9668 a53f dfbe 9670 a39c a63f
00000370: bc78 cd07 dfb4 443f 5043 8628 53e8 933f
00000380: b198 ceb7 6684 a63f d13c ba31 f6f4 a23f
00000390: 37df 8ff5 2d94 a73f c18b 304f ea01 bbbf
000003a0: c021 a211 ea46 8f3f 77e7 38cd 8eb9 8dbf
000003b0: 74b8 c71e 54e7 953f c71f e13c ca86 72bf
000003c0: 09bb fffb fb15 7b3f f5cd e4f7 fd85 ac3f
000003d0: 3524 3c9e 9526 933f 32b0 0d81 636c b3bf
000003e0: 6268 94e5 5dbc a43f 469c 4c48 fc3e a83f
000003f0: 22fe 23d2 fa38 af3f ff6f 86c5 cf81 b03f
00000400: 0ddc c7eb eb0d 9abf a2ac dec3 af17 a0bf
00000410: b71a cccc 4094 9f3f 762d 13a6 1b38 b9bf
00000420: 7ec4 c963 32b1 b53f 47e9 b450 32a5 893f
00000430: b646 2b0c ac2f a43f 8fdd c96c 7c05 81bf
00000440: d80f e83f c976 703f 6ea9 44b9 1e6c 923f
00000450: 7168 6983 cc29 9c3f 6ce3 ee59 4851 ad3f
00000460: c175 27f5 0510 8e3f 5684 499f da72 7d3f
00000470: b609 d463 1917 94bf 8bbd c337 83e6 983f
00000480: 197e 5319 6037 8c3f c551 5eed b814 ba3f
00000490: 9b5f a573 b663 8c3f f5f2 05d4 38c4 ae3f
000004a0: 5300 40f9 47b3 a63f 81b8 dab6 6d38 903f
000004b0: dfee 1311 ff94 89bf f6d1 237c 696d 803f
000004c0: 64b4 532a 8a44 5fbf 4332 f7d1 b042 a5bf
000004d0: 5450 3eef b9b5 80bf b386 4694 63cf a03f
000004e0: 544a 51b1 796a a13f bb16 6100 2d5c 9b3f
000004f0: a213 c7f9 5341 70bf d33a 5dd0 31cd 613f
00000500: af43 8d42 bc2e 8d3f 0e29 1b76 6496 ac3f
00000510: 90a3 4058 f41b a4bf 371a 23a3 34a5 aa3f
00000520: b70e 9c9d d3e6 903f 510a 5245 15e9 953f
00000530: e7b6 2954 040e 633f 075b 096f 7751 9f3f
00000540: 1bb8 ca2c bfe7 903f 077e ba31 8c94 403f
00000550: ccdc d86d c178 f3be ba85 7d0d 861c c1bf
00000560: 0cca 9736 59d7 913f 62ed 1c30 17f8 8c3f
00000570: dc58 4bdb 0ca2 98bf c46d f6e1 0eb9 933f
00000580: 0dbe 8a76 e156 973f f603 8811 8399 6bbf
00000590: 6a11 e321 290b ac3f 10af d048 348f 74bf
000005a0: 70c3 afff f827 babf a43d 2fb7 9842 a73f
000005b0: ec69 a16d 0916 a23f cf28 c58f a084 973f
000005c0: b161 442c 53d8 a43f 1ecd 41df 709d 6b3f
000005d0: b0d6 e882 d295 953f b700 b374 d9a1 a5bf
000005e0: 6307 2ea5 dbb3 b1bf 6f88 d683 0bfe ab3f
000005f0: 8a41 4f4e 588e af3f 6810 f58f 8a09 943f
00000600: efae db6f 42ff 9b3f 7a36 82c2 f234 bd3f
00000610: 37c0 a185 2fc5 9a3f 24ec 641a f889 a63f
00000620: adce 26bf cf11 a83f 1e1f c347 ced7 9c3f
00000630: 64ec 300d 4af2 953f 998e e0ca 9fd9 97bf
00000640: ddb8 1c5f 08e8 b73f a9d7 23e9 f3b6 8d3f
00000650: 0544 da27 a49d 863f 67cd 4ce2 ef5c ab3f
00000660: 2dc5 276f a4bf af3f 29e0 c76f e151 8dbf
00000670: b421 79f7 40cd 863f ed2c 21e3 3d44 adbf
00000680: 8747 8b66 2e38 55bf f2a4 00c2 1310 7fbf
00000690: 68a4 a737 5171 b63f f86e 5928 ef16 983f
000006a0: 78f6 aa57 72df aa3f c22b a97d bc81 a23f
000006b0: 6dc6 371f c3e9 72bf a018 0d98 acce 7a3f
000006c0: a68a 923d 3c1a a03f b6ba 3c00 ad94 a53f
000006d0: 5d91 2314 8e30 a13f 57c4 f41d e3bf c0bf
000006e0: dd99 6370 c820 7dbf b371 4c6a a1ca 843f
000006f0: 7ec8 b9ff 1633 b03f e21d c9ec 423b bdbf
00000700: 888d 082c 4f88 a33f ff3b 59ab d49b 823f
00000710: fc8b 6b10 6aac a53f 9177 296e c514 833f
00000720: fd89 a5b6 d236 b43f bbc0 a6ad a779 b1bf
00000730: 5901 9008 888a 123f 98a7 9a10 8e86 673f
00000740: 33a8 2af5 9ef5 a53f 7b74 b025 e3d8 9a3f
00000750: 1f78 b631 dd2e 9ebf 475d 029d f55a 90bf
00000760: 9a29 a2fc eae7 8d3f 65ae d585 151d 87bf
00000770: d012 fc03 8da1 6dbf 74be b948 e5d8 753f
00000780: 1f8c 7eac bbe2 bdbf 40b4 43c8 87d7 acbf
00000790: 1713 9bea d48d b33f 7063 b328 512d b23f
000007a0: d24d b9e0 f07d 87bf 5b40 6bb9 c010 8cbf
000007b0: 73d1 c961 f5ed a9bf 10a5 7423 143e a73f
000007c0: 5c57 13c1 aaff 743f c29e 6df4 7f07 cfbf
000007d0: adb4 ee8e def7 a53f 7f5b e992 ffec b1bf
000007e0: e78b a560 616c 90bf 1435 e8db 8df1 9c3f
000007f0: d890 28d1 def6 90bf 726e c9a2 46e3 843f
