src/Weights and Biases/bias_layer_1.npy (npy, 2176 bytes, 1 tensors)

array f8 [256]
00000000: b033 4bf9 aa61 883f a4bd 32e0 a816 bbbf
00000010: 1c2a 9576 af2f 5fbf 8732 aa8a cd0e 6e3f
00000020: 7ed5 1b82 2f40 7e3f cf47 1b21 ba9d a13f
00000030: 051f 42b1 3523 bc3f d934 e121 340c a23f
00000040: f3da e934 d4d3 813f 2309 6027 9a6f a33f
00000050: 6b5f fba7 7dfd a53f 8aa2 c259 c3e1 a43f
00000060: f977 9b1c 881f 76bf d6af 785f 6189 a03f
00000070: 1187 036a fba8 5bbf 216e 6287 7e72 863f
00000080: 010d dedc 61fa 91bf 24ae 5f52 19d5 a1bf
00000090: 8dc0 3040 5843 8d3f 354d fd0d bd59 ad3f
000000a0: 584d ff21 fc54 7cbf 3798 428b c04b 513f
000000b0: beeb 9982 9f4c 51bf 97fe c8a6 429d b2bf
000000c0: f181 6d87 5827 97bf 06d6 4a2c a822 c1bf
000000d0: 685f 3fc7 d7f8 a13f 0c9f 36b3 9611 9b3f
000000e0: cd84 fc76 a8fd 6cbf f6a5 6857 bdc3 8cbf
000000f0: 37e9 4b56 a703 7e3f 5fcf 1cbf 1d8a 4dbf
00000100: 55de 3c12 6853 a5bf 4938 3258 e15e b03f
00000110: 26b6 2ed9 9bb4 a43f e564 e5bf b801 a5bf
00000120: 7915 9db5 fa78 babf a5b6 693e 8db4 683f
00000130: d222 875d a8e7 98bf b9bc aefd 15d2 8a3f
00000140: 6285 0f7a 6ede bd3f 5504 df45 8af6 63bf
00000150: a285 ea2f a36e 893f 4d9a 8fcd f81b 953f
00000160: f10f 2f00 5ef5 99bf 23f8 8009 7f43 74bf
00000170: 1592 ed19 6fb3 a63f d53b 7b86 1da7 7bbf
00000180: 7298 7117 1bda b33f af14 70d9 bd48 5f3f
00000190: 7d75 bfbe 6b1d 853f e652 41df 935c 82bf
000001a0: cb17 3915 0c9c ae3f 84f9 0337 f741 b83f
000001b0: 512e 802f 4ecb b13f b48a 5161 83d5 c03f
000001c0: 2bac 2b4e b163 ac3f d901 7b6b 79da 94bf
000001d0: a959 87ca 9e54 943f 9823 3f5f b2ee b53f
000001e0: 9cdc 7809 aaa2 65bf 2e84 24b4 b0c3 a63f
000001f0: b567 fc75 4780 99bf dac2 2626 8b5e 303f
00000200: 0711 be1e 3fb1 93bf 6d61 c774 a9a9 9dbf
00000210: a801 50d3 3497 783f aa22 8e13 b610 c73f
00000220: 9fe9 d409 1d5c af3f cc1a 2366 46c0 aa3f
00000230: b2de b2f3 cb02 943f ad06 8d74 798b 75bf
00000240: 3338 5d27 d2c6 8abf 50a3 f66c b212 863f
00000250: 867a 7f9b 686f 79bf 01b4 8cd4 c1f7 21bf
00000260: ed87 5d62 626a 9f3f d8f1 311f b27e b33f
00000270: 3759 a348 c639 51bf 0b67 abb1 246c 87bf
00000280: 2f42 6a44 45b0 903f 6aa5 6315 1921 b13f
00000290: 6466 a1e7 df29 b9bf 3cf2 1660 d855 a4bf
000002a0: df00 8c52 17c7 a6bf ff13 caeb 137e 763f
000002b0: 7f2b f288 f16c a73f 5d37 19d3 41bc 7d3f
000002c0: c02a d58f 1947 a33f dc68 09c3 0a15 b13f
000002d0: 3311 3ebe e9e7 9b3f 2843 f2c1 cd0f b33f
000002e0: 3cfb aa73 cef9 a23f a856 a16f edeb b5bf
000002f0: eaf2 1833 b5fc 77bf be49 20b2 502a 563f
00000300: 3570 e513 cb62 a63f 6318 7a53 e6c6 743f
00000310: 8f29 418d a9a7 963f 3e88 d128 2474 85bf
00000320: e436 a9fc dcba b6bf eadd 6a46 78f4 76bf
00000330: 199e f58c 2a58 b23f 9d3a 10cb 73c2 96bf
00000340: 2647 67f1 0b15 a2bf 01f6 c0d0 b28f 943f
00000350: 5edd cc93 f7f1 933f a3e5 1ed1 430d b6bf
00000360: 2602 4564 8d1e 903f 7f76 822b 3d47 a3bf
00000370: 42e9 8b77 79d0 87bf e9b8 af67 8733 b7bf
00000380: bf74 5aaa 55da 70bf 669b b23c 3ede bd3f
00000390: 6741 8054 cc17 a03f 4714 56dc ff04 8d3f
000003a0: 350b d092 c31c a3bf 2933 39b2 f08a 96bf
000003b0: b9e8 4316 d55a b4bf c250 96e5 6390 b0bf
000003c0: 4a22 33f2 7c3b 8e3f 7b29 64f3 4494 9d3f
000003d0: 6d63 3685 fcd8 a0bf cc57 c7d2 7ac9 b13f
000003e0: a027 393a 9a03 a03f fc98 1366 66b4 b43f
000003f0: a4dd 0d2a 0e26 c03f 5292 0097 7a95 bc3f
00000400: b4ab 6efd f2a1 a83f 43a8 2573 91c0 ba3f
00000410: 7ae7 a1a1 1d0f a93f 463b ac63 234d 863f
00000420: ec3e f261 35cc 533f d9aa 4c32 ca0d a03f
00000430: c64d 92b4 e37d ab3f 0532 35a8 ca7f 923f
00000440: 154f 8b45 4096 94bf 1d64 8662 ba4b 91bf
00000450: e843 8b37 33d5 633f 5614 2a32 eec6 95bf
00000460: 18d4 4170 e732 ac3f 1315 516c 3448 913f
00000470: de1b 7f49 fe3c 9f3f 9ec4 97eb fa0e 9bbf
00000480: f02b 054b f2d9 773f 7cda 0304 bbf0 653f
00000490: d5b2 0bcd e261 87bf ef62 58d9 6f69 b53f
000004a0: 376d b13f d0bc 923f f0e1 ea1f d04b b83f
000004b0: ebe7 4bc1 1ce1 a93f 2c1d 0136 ed4d 713f
000004c0: fd8a 573a 3e33 a3bf a02f fe9c cc18 b13f
000004d0: e5a8 b19a ccda b5bf 116c 8f25 b3c6 b93f
000004e0: 063a 08b8 2cc3 c0bf 8ddc 7d8e 9f08 a83f
000004f0: e356 6402 5bbe 90bf b5be 8c0b ec53 503f
00000500: e9a8 4cbf 391e a63f 9e83 663d 9c7c 4e3f
00000510: f559 5026 cae9 b43f 530d e779 9bfb 8b3f
00000520: dc31 a343 3318 87bf 5ea6 af3c 910e b33f
00000530: 7cb0 ed63 cfd5 a5bf b886 dd9a 5a80 bcbf
00000540: e834 fe08 7990 833f 9f16 3f2b bf55 6cbf
00000550: d86f 107f 1631 a93f fda5 f3aa 3973 abbf
00000560: 2d28 7d31 1075 a8bf 0d08 28cd ab6e 49bf
00000570: a240 56c3 fedb b03f 9a12 01c8 237d a33f
00000580: 1406 1fde aa75 b03f 4712 b2dc 727c 70bf
00000590: 83d4 7eb4 d26f 883f 3d01 ddd5 8d6d a9bf
000005a0: 2b1f 514a 97a7 803f ca19 6101 673e 6c3f
000005b0: fc82 5550 2aa6 abbf 41b1 7d5a ec60 9a3f
000005c0: 76fc ec46 9b18 793f 322b 7414 e720 ad3f
000005d0: 6dd2 7078 b56e b8bf c37f 4f9d 7939 b53f
000005e0: 0123 b210 ee5e 6abf 0eb8 5ab6 7298 91bf
000005f0: 0dfa 7658 f837 a03f 218b c3fd af24 96bf
00000600: 1daf 33bc 5211 b7bf 6de0 940f 39ca a03f
00000610: a1a7 aff4 8ce4 963f df5f 58ce ee0e 9f3f
00000620: 10f4 9bcb 83d9 983f 48d4 9ee8 0f18 893f
00000630: 4c75 ce9a 0564 803f de9c e062 a92a b63f
00000640: 1389 af81 fc4d b23f 6395 4568 4920 913f
00000650: 9b2f 1dc3 023d 2e3f 7dda b9c1 c0d8 b2bf
00000660: 05b7 9d1d eee1 903f 0978 9b75 4520 b13f
00000670: 7ff5 e142 6638 a63f 20d4 7049 5a18 903f
00000680: 3257 5419 8c61 a33f 1556 21ab adab 7bbf
00000690: 3ee7 06e9 ee5a 9cbf b6e6 2408 0439 aabf
000006a0: b67f 612a 9645 b53f 86df 253f bdce 9f3f
000006b0: 1475 203b 4074 913f af86 6aa4 6b29 bb3f
000006c0: 3515 8784 09be 6ebf 001d 9577 6bbc b2bf
000006d0: 00c0 58b7 09db 8d3f b5bb 4014 ef33 613f
000006e0: 9545 07f9 27b4 8d3f 0eb5 776b 7e80 a83f
000006f0: 986f 81b5 a5c3 8cbf f39e fa88 045e 82bf
00000700: 7ee3 e273 5e5e b6bf 0a8d ee62 23b0 a8bf
00000710: f84a 8732 21b5 8ebf 4a37 c888 614f 92bf
00000720: b2f0 4e69 4f87 aa3f 5fa9 c8c1 f053 9dbf
00000730: 40e9 ff0f dc2e aa3f ee8f 4474 2829 65bf
00000740: 295a d007 e3ae 793f b7f4 1735 9a60 ab3f
00000750: 3306 2693 bd84 a13f f79e 84e8 7a1e b43f
00000760: cad4 a900 6d7a 94bf 1f86 7042 1c45 8b3f
00000770: 265a 6fda 4ee0 743f 48c2 c31f 78e6 87bf
00000780: 357d ce12 7403 b63f 5b9d 0e8b e118 77bf
00000790: 5fe8 582f 5d00 bd3f cb86 5127 4f55 42bf
000007a0: 6168 e16f 73b0 803f 238f ab17 a1cb c0bf
000007b0: e410 f633 5fbb b03f b311 5446 af65 943f
000007c0: 794e 9c56 bb49 9e3f 818a 407d 2ca7 863f
000007d0: fa78 ffd5 e961 653f 3fb9 42da 276f 7a3f
000007e0: 9069 abaf 8a8b 90bf 77f5 61fb bfe9 ba3f
000007f0: 1ae9 d5ce 4515 bcbf d533 fc70 acc8 9abf
0.01190503667148754 -0.10581450913990992 -0.0019034589298195853 0.003669167946389887 0.0073854308882251845 0.03440648702748172 0.10991225793452138 0.03524935639925681
0.008704812874595435 0.03796083193448598 0.04294960666237454 0.04078493567187021 -0.00540116470958018 0.03229812899039046 -0.0016882376876811748 0.010960567957503166
-0.01755669508521596 -0.034828940682782666 0.014288606127678594 0.057325275380799935 -0.0069169854104587855 0.0010556583702423636 -0.0010558660236756746 -0.07271210262205795
-0.0226110298784778 -0.13387014544211712 0.03510164553853096 0.026434282959285446 -0.0035389223411504745 -0.014045218687061638 0.007327703152208812 -0.0009014744993920235
-0.041651966310777645 0.0639477577517208 0.04044043565896187 -0.04102876036149342 -0.1034084981339073 0.0030157812755565333 -0.02432120390747878 0.013096019558217585
0.11667528610225511 -0.00243689543182816 0.01241805543878877 0.02061451677936992 -0.025350064049931068 -0.0049471819293654155 0.044337722697296446 -0.006751170476220166
0.07754678079945324 0.0019094327924460799 0.010310022123969581 -0.008965640307147148 0.059784295645428275 0.09475655644562236 0.0695084444016001 0.1315159058750247
0.05544809416991144 -0.020364663300599026 0.019854050742503713 0.08567347359998079 -0.0026410409007229917 0.044461748113697616 -0.024903408600131367 0.0002497758597668605
-0.019230829478616786 -0.028967521431554944 0.006003576611874818 0.1801974864468055 0.06124964470878357 0.05224819180289372 0.01954191851538551 -0.0052599663111451535
-0.01307453329686945 0.010777849149990054 -0.006209763167105314 -0.00013708344547450071 0.030679261449570495 0.07615197431181941 -0.0010513721813843588 -0.01143673579410944
0.01629741888115371 0.06691128513525305 -0.09829520611801851 -0.039717447023097624 -0.04448769457485623 0.005491330925569748 0.04575304791168033 0.007259614112241267
0.03765182381410659 0.06672732602729375 0.02725186561248556 0.07445989594476699 0.03706212198220846 -0.08563121772143722 -0.005856235323844253 0.0013528621716473034
0.04372248285173478 0.00507249804616636 0.022123955961697524 -0.01047542810028201 -0.0887888066146974 -0.005604238342747684 0.07165780965225856 -0.022226151722913746
-0.03531682321376044 0.02007941626674459 0.019477718730937503 -0.08613990645871765 0.015741547818153866 -0.037652885018570885 -0.01162810226513911 -0.09063001901060698
-0.004114470129619351 0.11667241079213184 0.03143156558519671 0.014169691955212239 -0.037328826590984944 -0.022014389875312155 -0.07951099198899926 -0.06470321993976128
0.014761901990270183 0.028885915141509493 -0.032905474911962475 0.06948058744396163 0.03127748451932111 0.08087768547156665 0.1261613564817995 0.11165586649492212
0.04811057418495271 0.10450085698326554 0.048943449001810316 0.010889317015907129 0.0012083550753096374 0.03135520805365894 0.05369483546487745 0.018065611378277797
-0.02010441231216394 -0.01689044214581169 0.002420997651235702 -0.021266671954908688 0.055075867131485434 0.016877001868370444 0.030506108508941192 -0.026424332265325583
0.005823084313599999 0.0026782658243250084 -0.011417171366212934 0.08364008957176926 0.0182983912348906 0.09490681437717519 0.05054559573723324 0.00422470722703076
-0.037500328656980365 0.06678465683779544 -0.0853698613806589 0.10068816821096528 -0.1309562586397563 0.04694079031372054 -0.01635114862536725 0.0009965710762109118
0.04319935283850091 0.0009303820505018772 0.08169234691045076 0.013663496644659523 -0.01127662706530768 0.07444102984995868 -0.042646866749095985 -0.11133352547542585
0.009552903735107823 -0.0034588559883300253 0.04920263577534428 -0.05361347400487302 -0.04776812175858001 -0.0007761324762329838 0.06585685986488213 0.038064115681241975
0.06429546282654314 -0.004024933509871937 0.01193203557327594 -0.04966395602832783 0.008132154422255752 0.003447724516294691 -0.05400211554183973 0.025760357878810373
0.006126982260695182 0.05689165234260542 -0.09543928327986757 0.08290824976529536 -0.003219094248894883 -0.01718310583117249 0.031677017973823586 -0.021624326575771072
-0.09010808081410145 0.032792838241619694 0.02235622638173818 0.030330401748955068 0.024267253210371875 0.012252926146041912 0.008003276621645704 0.08658846534727924
0.07150247732309749 0.01672472666668535 0.00023070009916137117 -0.07361988763464385 0.01648685508501215 0.06689867135307294 0.04339904371679903 0.01571789811369595
0.03785360154340224 -0.006755522148599554 -0.027690632794225005 -0.051216245645674105 0.08309305700959055 0.03106208513187838 0.017045024498760844 0.10610077632966396
-0.003752726163130627 -0.0731875578832053 0.01457793799190199 0.002099959327118007 0.014503776824230022 0.04785533010349684 -0.014045042611705402 -0.008968387060420002
-0.08737745599036192 -0.048218828035965514 -0.0149939149422713 -0.017880939458385904 0.051813584904694024 -0.02864051993143712 0.05113876052196753 -0.0025831022377520363
0.006270300710659296 0.05347139261355365 0.034215854847399994 0.07859008957586498 -0.019998267331591525 0.013315411355566074 0.005096729298165436 -0.011670053929692462
0.08599019488473376 -0.0056389627724578685 0.11328680425586544 -0.0005594860546233813 0.008149053432294719 -0.13121427207726652 0.06535906809409969 0.01991914622068842
0.029578139458932704 0.011061046192542225 0.0026101653202054128 0.006453662561553052 -0.016157309505481943 0.10512924086829921 -0.10969959544846511 -0.026156134029452566
