src/Weights and Biases/weight_layer_2.npy (npy, 262272 bytes, 1 tensors)

array f8 [128, 256]
0	0x3fb32004d9e2db6d	0.07470732039915413
1	0xbfb94bc54ad1d7f9	-0.09881241871502756
2	0x3fb1b3aa6bd647a4	0.06914773113956457
3	0xbf9af1691d541c35	-0.026311533370087587
4	0x3fca3288f1ae0cf6	0.2046672039105954
5	0xbfc3928a0c4f7fe7	-0.15290952302075242
6	0xbfa3d688a1cce514	-0.038746137381574425
7	0x3fca0704b1fc8c64	0.20333918276546392
8	0x3fb9d483cb95dec5	0.10089896889064238
9	0x3fb0654f9095092d	0.06404588012540975
10	0xbfc0a4588337137e	-0.13001543433179202
11	0xbfa91c78ee000466	-0.04904535203241593
12	0xbfb722a50065385b	-0.09037238368657212
13	0xbfc1bfe86f90377a	-0.13866906592778233
14	0x3fb41fd0b2379f9d	0.07861046172149462
15	0x3f76ade243459901	0.0055369223012802235
16	0xbfa6657790cda056	-0.04374288218133475
17	0xbf707678c9d132e4	-0.004019233540998288
18	0xbfbab282903fb893	-0.10428634664251239
19	0xbfaad9a3c930faa1	-0.05244170981358321
20	0xbfc0dd2b9f1d11c5	-0.13174958485809732
21	0x3fb2dd8c3432445f	0.07369304918599216
22	0x3fc289b095fbabb1	0.14482695887940403
23	0xbfb31a9eb093a539	-0.0746249371619755
24	0x3fb688efb24342ea	0.08802698232762976
25	0x3fae460db59d0229	0.05912821618995096
26	0xbf8c3d3d2eabdd45	-0.013788679110332889
27	0x3fc66733c18d9ba6	0.175024480350854
28	0xbfc7d097aa4e42ed	-0.18605323615749772
29	0xbfb3d0c236b55a18	-0.0774041541638798
30	0x3fb64f34010d824b	0.08714604402258279
31	0x3fb3e705bd2e2d2e	0.0777438723436503
32	0xbfb757502f7b222d	-0.09117604407504905
33	0xbf9ff8bb585c1fb9	-0.031222274082238963
34	0xbfc12ce90a5eee1d	-0.1341830540312551
35	0xbfb55d5307b9d393	-0.08345526636715155
36	0x3fb5cc3af147f072	0.08514755621576045
37	0xbf590a0e0e39d22d	-0.0015282761823104494
38	0x3fc14065be74b9a3	0.13477775382621102
39	0xbfa137b0f374cdfa	-0.03362801524999877
40	0x3fb56de767461be1	0.08370825072607559
41	0xbfb6f2d37cf494c1	-0.08964273262661761
42	0xbfc09cc91065fae1	-0.12978471089078084
43	0x3fbc4cde18bdb981	0.11054790596037913
44	0xbf9d52820907ceff	-0.028635055352380864
45	0x3fba2bd90bda36f0	0.10223156489720586
46	0x3f92a8b7b51d01c8	0.018221731595305518
47	0xbfbd07c743c51975	-0.11339993862666183
48	0xbf8f6f8b9bce7d6a	-0.015349474613514064
49	0xbfb7ab8fed5e6a78	-0.09246158166062368
50	0xbfa404ef003a5c68	-0.03910014035971515
51	0x3fb3f3aa7d5176fd	0.07793679770972158
52	0xbfb5def5810336c0	-0.085433334347921
53	0x3fbe6eb6a26fe9ff	0.11887685266257363
54	0xbfb6ea3ce1a6c096	-0.08951168545786667
55	0x3fc730f1acc298ac	0.1811811536364919
56	0x3fa3c717a1f37683	0.038628328818714606
57	0xbfcf4d420a9a1739	-0.2445452262656376
58	0x3f86b793a35e87d7	0.011092332289823688
59	0x3f948636b61caece	0.020043234696614225
60	0xbf9ab70876a0d0a1	-0.026088840713968
61	0x3fb93d895cd5c503	0.09859522358398824
62	0xbfb61be6e524d2ed	-0.0863632497246944
63	0xbfa4fda628c1e38d	-0.04099768874670593
64	0xbfb960dc702344ab	-0.09913423288095895
65	0x3fc099c7b0a2d2df	0.12969299435430678
66	0xbfd118eabb0fe5a8	-0.2671458079126645
67	0x3fbc8caf50316c4e	0.1115216799529872
68	0xbf84f5fbcf0a4eb0	-0.010234801536433608
69	0x3fa9be8a6c012929	0.05028183525480962
70	0x3fc8431a045dbd4b	0.1895477792090595
71	0xbfbbefd2fe0163a3	-0.1091281767015873
72	0xbfc707943c9b0f0c	-0.17991879424345603
73	0xbfb14e70af3a92e0	-0.06760315206572498
74	0x3fb09555650d2d9c	0.06477864949299889
75	0x3faeaea73ac53c23	0.059926248478056963
76	0xbfbc33c6cc561460	-0.11016504753759326
77	0x3fc49a596050c812	0.16096036150844434
78	0xbfa3e4905fb5702a	-0.038853179629512916
79	0xbf91ac48b976fd50	-0.017258774108765806
80	0x3fb0b725bb97cd56	0.06529460744768775
81	0xbfc8a91f70a20d21	-0.19266121863993482
82	0xbfbe126b00c960b8	-0.11746853608326802
83	0xbfc76b7e1647d19a	-0.18296791160504428
84	0x3f803e4bacc88504	0.007931319437434421
85	0x3f98f1dac008ddc5	0.02436010167204274
86	0x3fa4e10cd69fbd58	0.040779496382919944
87	0x3fa2cff59b71e77d	0.036742854333126275
88	0x3fac13f18ef9897f	0.054839657500241216
89	0xbfc368b07fa66625	-0.15163236840162245
90	0x3fac8a2957b10626	0.0557415885491646
91	0x3fc23dd17d5c894d	0.14251154538312463
92	0xbfbd49303b1f885a	-0.11439801639019845
93	0xbfb0b434a01ba1b7	-0.06524971875081219
94	0x3f6934ecfb100e4f	0.003076994755703478
95	0x3faaa9e2e48a0cb8	0.05207737960611197
96	0xbfc188ce2f7d475d	-0.1369874698526087
97	0x3fb8217e67537de9	0.09426107428179588
98	0xbfb4a1de0842702d	-0.08059489919327296
99	0xbfae190638359e7d	-0.05878467022085674
100	0x3fbb39d826a76888	0.10635138457965543
101	0xbf89f2045e484e62	-0.012668642165443337
102	0xbf8a63ed50dd3857	-0.012885908155706156
103	0x3fa76b8b242eb8c3	0.045742366949853806
104	0xbfc323a08833cb01	-0.1495247521448491
105	0x3fbe4961ae56d44a	0.11830721384360846
106	0xbfc05ce6496c2738	-0.12783506951410017
107	0xbfca65d7ac786ec4	-0.2062329857006856
108	0xbfba69a283282e65	-0.10317435934137505
109	0xbfbb1567eeb2129e	-0.10579537942437375
110	0xbfc6dfd97b874fb8	-0.17870634586017586
111	0x3fa6a56c8110ef11	0.04423083377375126
112	0x3fca5d8dfd23d683	0.20598006115294618
113	0x3fc0d646535b9d9f	0.1315391451855534
114	0x3fb6389faea9be27	0.08680150999293144
115	0xbfad1da36412ab1a	-0.05686674686997702
116	0xbfc2c58dda06b782	-0.14665387292683013
117	0x3fb1afbadcbcdddb	0.06908767594438052
118	0xbfc0a5423cdac204	-0.13004329654133084
119	0xbf5476caad7a7225	-0.001249025275604451
120	0x3f9fe91c62668b3e	0.03116268492307061
121	0x3faf3ca2b2e696f5	0.061009487474889136
122	0xbf9750f5e1f77a29	-0.022769777218735996
123	0x3fb14238bd732cd1	0.06741671204797518
124	0x3fb2ba017f81bb47	0.07315072405775168
125	0x3fcb3fd96d2dddb3	0.21288602667821763
126	0x3fa5865320e063f8	0.042040441287276964
127	0xbfa30675a286f2d5	-0.0371586571595565
128	0xbfaaf46193d7ebc5	-0.052645730302138406
129	0x3f9c4e898dead720	0.027643346106479005
130	0xbfc1271feefd5ac7	-0.13400649232308678
131	0xbfc3d9153981e756	-0.15506234462719232
132	0x3fa9e3f496cb1f03	0.05056728687992342
133	0xbf8c951b6112b7c4	-0.013956273937164705
134	0xbfbe6a1c0ada7c41	-0.11880660309769643
135	0x3fcfe4aa416b390d	0.24916580385474454
136	0x3f9a04b86753450c	0.025408631617044583
137	0xbf790de065399487	-0.006116749329156629
138	0xbf8f4035a271b589	-0.015259188671019401
139	0xbfb1fa098c7c7a6e	-0.07022151641693039
140	0x3fbebaf3d9251b03	0.12004016925230236
141	0xbfab3135b15b3606	-0.053109815502107735
142	0x3fb163a75911b7ca	0.06792684483090664
143	0x3fc5f7da8cf1d3a8	0.17162639505445765
144	0x3fbbc0b07d8323af	0.1084089571405815
145	0x3fb36be29102217c	0.07586494484178802
146	0x3fb7a65cfca61071	0.09238225143605107
147	0x3f845d4dfc761b69	0.00994358946515002
148	0xbf664abc010e661e	-0.0027211830096802855
149	0x3fd1952f18caad64	0.2747304670435453
150	0xbfb354768af5fa07	-0.0755075539836768
151	0xbfb6118289785554	-0.08620468002512399
152	0x3fb9c681adc38d83	0.1006852196911066
153	0xbfa361c5f2139781	-0.03785532550845883
154	0x3fc266d0b65f8967	0.14376267342511115
155	0x3fb2f8f360b689e5	0.07411118613394015
156	0x3fc11217034fe1db	0.1333645597621985
157	0x3fb5a31d197cc876	0.0845201670861416
158	0x3fc307fc77e908b8	0.14868121962542147
159	0xbfa3817596047220	-0.0380970712305706
160	0xbfaa26ae22f64f0a	-0.05107635666641215
161	0x3f9b6cd02d951dde	0.026782276899465766
162	0x3fa92f5ca4ca3f6e	0.049189467540712836
163	0x3f9f50af88da9289	0.030581228950398418
164	0xbfbe39ad02125ce1	-0.1180675630624708
165	0xbf99066d5abc0322	-0.024438580191602395
166	0x3f91b4777b8dd731	0.017289988437787677
167	0xbfa64a4921e1bd14	-0.043535504709206446
168	0x3fc1fc686d341b1d	0.1405153783054737
169	0x3fae16b0e6eff304	0.058766868773068054
170	0x3fbadbb47d93592e	0.10491493287859008
171	0xbf9eee397db32488	-0.030205629632096748
172	0x3fa1de5438593452	0.03489936054084154
173	0xbfb72eb84bdfd43c	-0.09055663921738327
174	0xbfa1c36fb4621039	-0.03469418599073077
175	0x3fbf241d2216edb4	0.12164480287804375
176	0xbfa70b0a1e480856	-0.0450060998882839
177	0xbfae80654b5792c8	-0.05957333130553405
178	0xbfc66d1a189c8cbb	-0.1752045269177865
179	0xbfbe474dc37bf529	-0.11827550909579955
180	0x3fb440b45a356c2e	0.07911231233940505
181	0xbfbbf62ab12d5919	-0.1092249567567233
182	0xbfa4542142fc40ac	-0.03970436041538625
183	0x3f74ddd4f3c8275c	0.005094367832961879
184	0xbfbb201be9b95c63	-0.10595869499353365
185	0xbfac581e5fcd7486	-0.0553597919413074
186	0xbfb7d9acb8790091	-0.09316520217635317
187	0x3f94395742d366b7	0.019749988034937185
188	0xbf8d75b1c22f3cef	-0.014384640444318168
189	0xbfba3966347cbbe2	-0.1024383428709679
190	0x3f93f62c46354a87	0.01949376276508954
191	0xbfc6aaab8af0e8cd	-0.17708343776923244
192	0x3f9ec6f494ca45a5	0.030055829602650203
193	0x3fadfa074a901665	0.05854819092932643
194	0xbf9f2c8c8fb031ca	-0.030443378706012138
195	0xbf9b499d99fe36f9	-0.026648008846271918
196	0xbfc0ca45d1d7a923	-0.13117287393772256
197	0xbfbc23a7f8a1198b	-0.10991906948138401
198	0x3fbdfc7c6688dce7	0.11713387969290388
199	0x3fc03c6f0b160c1f	0.1268442920810182
200	0x3f4dec95e4c83be6	0.0009132129576431252
201	0x3fc853411dc60ea7	0.19004072145263715
202	0x3fa2ad4239cc1d05	0.03647810893567719
203	0x3fb7e47c7d40c79f	0.09333017404494946
204	0xbfafb7bf74d184a0	-0.06194876004224992
205	0x3f9f484eba8ef62c	0.030549268852828756
206	0x3fbaad2431bb822d	0.10420442785426394
207	0xbfb2edf7697a10f7	-0.07394357991330823
208	0x3fbf3250ca821d69	0.12186150497483585
209	0x3f930f27bb690e47	0.018612500012990443
210	0xbfc1522f2f61014b	-0.13532056630539055
211	0xbfb24ccfea2a2fb7	-0.07148456065095742
212	0x3fd2820d209f539e	0.2891877001359776
213	0xbfb1645385e6c5c8	-0.0679371072681284
214	0xbfb17fa937f4db77	-0.06835420242428634
215	0x3f965b0d0ed9abbc	0.021831707030667266
216	0x3fcd706cf70ea4c6	0.2299934583982461
217	0x3fb483425255c6a7	0.08012785444386826
218	0xbfa168597e6a8201	-0.03399924915470721
219	0xbfb13eb66698a687	-0.06736316685478459
220	0xbfa19873acd6baaa	-0.034366240356907454
221	0x3fc39797795b40b2	0.15306371141060066
222	0xbf917b159245d48e	-0.01707109170225301
223	0xbfc4e48846351632	-0.16322425296873316
224	0xbfa5bf3bf18441fd	-0.04247462580872605
225	0xbfb5e0e29bef8070	-0.08546272570629454
226	0x3f9ffec76e675747	0.031245342362886033
227	0xbfb3c97d55b89599	-0.07729323714064264
228	0xbfaa86cfac6d6fe0	-0.0518097780211233
229	0x3fbf80f7e6400703	0.12306165095654013
230	0x3f929a6b4b7cbe76	0.01816718719709206
231	0xbf91bab01e4031e5	-0.017313720556602425
232	0xbf9fd20b6c95b685	-0.03107469415902255
233	0x3fa9cf95a5981e6d	0.05041186949170826
234	0x3fb80c2b7769f5c8	0.09393569627169207
235	0x3fb9c1c57b9c1899	0.10061296718422098
236	0xbfb39bc8999e3d1f	-0.07659581900064837
237	0x3fab0ce89aed7683	0.05283285990911415
238	0xbf924820165e57fb	-0.01785326134230301
239	0xbf9186611bb68cfa	-0.01711417895934362
240	0x3fb8cd482eba1856	0.09688235417169841
241	0x3fb1ec7c1babf4e2	0.07001472163752312
242	0xbfb0178586acecdb	-0.06285891092277344
243	0x3fc1e258154504da	0.13971997297816224
244	0x3fc11bc7cb290336	0.1336602918618383
245	0xbfc1f847a7f3c4fe	-0.14038940144340722
246	0xbfa378f9a0112866	-0.038032341756278495
247	0x3f9ed47271568cbd	0.03010729614983342
248	0xbfb3a6ea88b5605e	-0.07676568830118088
249	0xbfb4f5e854f99d0c	-0.08187725138269658
250	0xbfc055f2f2b8d42f	-0.12762295581492952
251	0x3f761dfdee44a42d	0.005399696270878923
252	0xbfa815a78d42f073	-0.04704021071799582
253	0x3fc1f3e8529ff36a	0.14025596651472522
254	0x3fb3dbfc7880df1e	0.07757547323205613
255	0x3fa572a3db964bb3	0.041890259318413746
