src/Weights and Biases/weight_layer_3.npy (npy, 10368 bytes, 1 tensors)

array f8 [10, 128]
00000000: a398 8d28 4a51 d2bf 22eb eae3 2028 b7bf
00000010: 0904 0751 07bd a03f debe f645 aab4 82bf
00000020: 1fdd a72e c5fa d73f 70d2 df46 65af c4bf
00000030: 32fc 932e c36e 63bf 3e8c 0fae 7b13 c03f
00000040: 9067 7a66 b536 bfbf cfbf 3962 4d5d d0bf
00000050: 2080 3cef 9779 b0bf eb7a a76a 8fa7 cfbf
00000060: 8c22 3bbb 6be3 b0bf 05a2 c325 5c04 e4bf
00000070: a384 f6ff 31fb b4bf 76bf 700b aaf5 973f
00000080: c6c4 ea2f 91d0 e0bf 6fe9 cb48 e4aa c0bf
00000090: 46e1 bb42 432d ccbf bc22 c031 b101 c0bf
000000a0: 9b08 a5dd 0cae d13f 0154 a67e ec87 923f
000000b0: 8a0d 6106 43ee c03f 3df0 c720 ac81 69bf
000000c0: 7cc2 6ee5 5094 e4bf 9340 271c e925 c03f
000000d0: a19a fcbf f144 b7bf 5054 e897 ecd0 cfbf
000000e0: c768 b782 8888 c5bf 168f 4197 f0ad d53f
000000f0: f25f 7cef 594a d4bf 35c2 be71 aa0f af3f
00000100: 2ddb c125 b0ff dabf cca2 dcac 797d d13f
00000110: 5dcf fb80 37ef b23f 8aa2 42e9 ee31 b23f
00000120: ae79 bb6e 1708 e0bf 4d02 180e 712f d3bf
00000130: 3296 beb3 a256 d6bf e1c3 289d 53bf e0bf
00000140: 4e27 3a29 5910 c1bf 96be 804f 0be8 b3bf
00000150: 91aa 19a3 3f23 d13f 893b 890a 75b3 cfbf
00000160: 01c6 0440 0884 da3f d3bd 67b0 eca5 cc3f
00000170: 2e0f d34b 9b35 c93f 93d5 636c 3c89 bcbf
00000180: 8a47 94fe 42cd b5bf 91f1 b1ec 446b d0bf
00000190: 0fb1 5a93 a9bb b83f 520c fd7c f547 c8bf
000001a0: 3efe 1187 9ff2 c53f 8771 99d1 f6aa 94bf
000001b0: fae2 0f44 736e a2bf 31c6 8ced 764e bf3f
000001c0: a325 8309 d1f8 a73f e7e4 7b31 6b4c bf3f
000001d0: 4517 7f0b ad29 db3f f3e1 092a 67ae c6bf
000001e0: af99 5ec0 b70c b13f e12d ca70 74fc d0bf
000001f0: 50e0 5f32 be71 a23f 248c e953 b1aa 743f
00000200: 13ef b867 e9dc c3bf a2e0 32fc b979 c8bf
00000210: d981 7702 6217 c93f 6c12 65a6 83cd b43f
00000220: bbf1 dc7e 6e39 b53f e4e1 805b 1a42 d3bf
00000230: e0f9 8614 7853 b3bf 2f23 9d5e 9c75 b03f
00000240: a354 a822 32c3 bdbf e7ff 2c14 d188 d2bf
00000250: 22b2 6348 1f4a d03f 34c1 86f4 5bd1 c5bf
00000260: f55d 333a c2a5 c13f f152 c0e0 ed4e a8bf
00000270: 4578 44ab 78a8 ccbf 052a 70f2 6f93 73bf
00000280: 3ade ea1b e274 d13f 4379 b678 93c3 dd3f
00000290: 95d8 95e4 9cbb a6bf 88d4 fd03 1289 c2bf
000002a0: 9543 4385 161a b03f c031 7f2b 7f98 d33f
000002b0: 51b8 8b82 fc7e 90bf b457 43c7 724c db3f
000002c0: e3c3 ec60 567d d93f a9b9 f34e 2595 a4bf
000002d0: 7d88 3141 7d63 b5bf 7b42 3915 20d7 c93f
000002e0: 22f1 57b6 0a01 d23f 877b 0126 ab2b b3bf
000002f0: c4ea 16a8 dc49 d73f d832 da60 ddee bebf
00000300: 30ce f8d3 06e5 a43f b43d 465b d7a0 da3f
00000310: 8e61 8004 3a37 c13f fdcb fe0b eec5 86bf
00000320: 465b 4b3e d61d c5bf edfc a80b d971 d7bf
00000330: c729 7f04 760f c43f 8df8 94b9 5229 d2bf
00000340: 0885 9172 fe48 943f 27e4 ccae d1cf d33f
00000350: b088 6dbc 5a51 b3bf 2a4d fcf8 cab0 90bf
00000360: a338 1d19 f620 cebf 6f68 ae8a a791 b2bf
00000370: aea1 8ec9 d376 c1bf 1cbe 11fd 17bd e33f
00000380: a9f7 c708 b74f d43f 91d8 4933 436d 773f
00000390: 1e61 3d8d a08e cabf 0dc8 1985 167c 7c3f
000003a0: a61a fe6c de6b 82bf 29a3 d4b2 7f6e e03f
000003b0: 35af 3db6 999b ccbf 2081 e2a0 7c18 bc3f
000003c0: 9314 d047 2556 ab3f 9603 eafb 49aa bf3f
000003d0: cba8 ee11 1970 8a3f af7e 8129 ac0b 85bf
000003e0: b6cf 7b9d 60b4 8cbf 9dbf 895f 4492 ccbf
000003f0: 5f96 f212 1651 d0bf 42f5 89e3 9778 ccbf
00000400: 7b9f a66e 3896 c0bf 509f f6a2 c519 e43f
00000410: 6d48 7a50 d99e a83f e271 09b6 1d68 b7bf
00000420: e2dc adc6 7280 d7bf ea5d df5d ba5e dfbf
00000430: ea79 55a1 2ddc c13f e88f 85c7 28d9 e93f
00000440: 9629 ca4e 8f66 d53f d6a3 fad1 985b b6bf
00000450: c530 2edb b285 b93f 17e0 605f b859 bdbf
00000460: cd58 4a07 f962 9c3f 39df 3420 e552 a0bf
00000470: ad46 ae81 3fff c83f adfa 2d67 05ad b23f
00000480: 6141 35e2 e528 bd3f 27f3 6111 a398 b7bf
00000490: dcdf 89ad 492b 99bf 4ed1 0d53 be55 e1bf
000004a0: 23d6 b55a 1f63 cfbf 7786 1920 dfbc d1bf
000004b0: 8311 21e9 d293 bdbf ed6d 2c37 8289 d1bf
000004c0: 8861 2696 86f5 dd3f cf17 700f 22d9 b23f
000004d0: b7f7 8560 f4fc d23f cc84 82ad d609 cf3f
000004e0: d122 ec20 ddae d2bf 1dac bba1 5046 8abf
000004f0: 46f4 99f3 446c cebf b260 0597 9ca4 e0bf
00000500: 944c 7f8d 3a42 bbbf 6399 3867 dd2d b3bf
00000510: 9ad6 c184 37ac b43f a3e3 5055 6f38 a63f
00000520: 5e3f e2c9 82cd b2bf f649 1c4b a9f5 c4bf
00000530: bd6e 8797 c67e 8a3f 9599 7897 345c cf3f
00000540: feb7 9038 3a29 a3bf a3b8 8e02 4639 973f
00000550: 98e8 3328 4d53 bc3f a50a 9766 adc1 bf3f
00000560: 34c0 57b2 2e69 b83f 4efb af0b 14fd a6bf
00000570: acef 138e ffce b7bf a10f 9c02 e12c 96bf
00000580: 9b37 1db7 6016 87bf 0d48 8ffd ec8e 903f
00000590: 85e4 b5ed 2462 e43f 9190 f25a 112d e03f
000005a0: eedc 7fb2 d8d9 a1bf 6640 d529 7485 cb3f
000005b0: 09ba b54c 14dd b03f ea74 3356 7a3c c53f
000005c0: 399a 0889 481a be3f aaef c4b1 53d1 d93f
000005d0: 162d 2c22 1d6e db3f 2789 96e7 588c d1bf
000005e0: 3219 4d52 7527 cfbf 0188 beb0 1524 b0bf
000005f0: 4978 08c4 6a83 b83f 40a4 ce16 c368 d03f
00000600: 4368 26ed fa6b d13f 16d3 6823 535b dfbf
00000610: 9b42 01bf dad7 be3f 4182 42c7 2594 b3bf
00000620: f36d 71a1 267a 79bf 162c bb6d e979 cbbf
00000630: 81a8 c2fd 4fbd 88bf 61fb d9d5 74f9 c63f
00000640: 0c1a 0986 abc5 c6bf 03dc 6705 ad5e d83f
00000650: a18f 5bbe 1b83 a73f 94a1 e031 9ffd cc3f
00000660: cd6c f35b 7ba6 ba3f 5b60 e3af e35b a03f
00000670: c4d0 c130 71e3 ce3f ec00 a09d 4b9d cfbf
00000680: 647f e86a d2e7 cc3f 54d3 bcef c108 c23f
00000690: f610 0417 82f5 cfbf 7eba 34c8 b715 be3f
000006a0: aab7 e41b c319 9f3f bdd1 7a03 d1c4 ccbf
000006b0: ab7c 460f 6afe bf3f c5c6 109a a1c5 e2bf
000006c0: dee0 d9a9 68f4 e1bf 908f 6885 d83e b83f
000006d0: f65f 73f1 2a88 b5bf 13bf f0b2 1d5c cfbf
000006e0: 0bbc 17bd 062f d6bf d3e3 75e0 d598 943f
000006f0: 3a52 1414 f345 ad3f 66ed 9d38 7615 b2bf
00000700: 582e c13b e8ac ce3f b946 b7a3 6d0b cd3f
00000710: 2010 7ae3 e78a c93f 643a d8b6 ee11 c53f
00000720: 087a 19ee 49cf d5bf eb67 4592 5536 b53f
00000730: e32d 2423 f043 d1bf 94b6 0110 bef5 c6bf
00000740: 3cab 9dd2 a694 743f 4ac6 a30b 7e0e dcbf
00000750: bc63 14ef 3afd b9bf 052f 8aab 689f adbf
00000760: 7b4f cf87 7eca b23f 01fb 82af dbd5 983f
00000770: 78aa 97b2 0109 9ebf 4f70 f68f 3ace c0bf
00000780: 7de5 afbb 11f9 c43f 52c5 130a d15f d83f
00000790: 40eb 22bc 29bf b5bf f210 5466 8dc4 873f
000007a0: 131e 9d56 0f46 c0bf 11a3 889e a721 b43f
000007b0: 54d3 84b1 70cb bd3f 32f4 7fc6 cc38 5dbf
000007c0: e21f d449 eff7 cfbf 3db4 3e16 9f51 d03f
000007d0: efe0 7873 4d67 c93f ac1f 89be d22e c4bf
000007e0: 887d 507a 0e2e 613f bce5 7a5b c042 c63f
000007f0: f413 49ee 7ba5 dbbf 5a63 f51e ada4 ba3f
-0.2862115283991306 -0.09045606197734604 0.03269217361549443 -0.009133653888823753 0.3746808009741062 -0.16160264931353963 -0.0023721515796064846 0.12559457778033506
-0.12192853691013128 -0.2556947192415437 -0.06435536947947229 -0.24730103214002183 -0.06597016640729175 -0.6255322206098418 -0.08195793627830254 0.023398072193401252
-0.5254598556404282 -0.13021520189779376 -0.22013130911342155 -0.12505164078927133 0.276248184633127 0.01809663317688504 0.1322711735866558 -0.0031135904193871065
-0.6431049805742783 0.1261569392650058 -0.09089575707603582 -0.24856336037979299 -0.1682291639579658 0.33874144335844514 -0.3170380438546082 0.060666395554453
-0.4218559616778517 0.27328340416947294 0.0739626588727424 0.07107442087966312 -0.5009877360096675 -0.2997706067690487 -0.3490378146474057 -0.5233552999035248
-0.13331141007466346 -0.0777594632243058 0.2677764027381864 -0.24766409887748989 0.4143086075956433 0.22381361592805024 0.19694844438901654 -0.11146905561675728
-0.08516329493821054 -0.25654719462161163 0.09661350104824272 -0.18969601252510643 0.17146677108029168 -0.020183426421100072 -0.03599891858897837 0.12229102420385442
0.046820194636505684 0.12225980718712358 0.4244186985273369 -0.17719735672632417 0.06660030790826597 -0.26540862097382784 0.03602403988765046 0.005045597731256488
-0.1551791912514707 -0.19121479811088188 0.1960260879559559 0.08126089870808934 0.08290758702509653 -0.3009096044147823 -0.07549238682893344 0.06429459867389363
-0.11625970216876395 -0.2896006295231914 0.25452405995636884 -0.1704516357399456 0.13787105409458858 -0.0474771820883343 -0.22389133799237207 -0.004779279034674126
0.27275898672403154 0.46506201542242226 -0.04440012255047169 -0.14480805582903522 0.06289807084546191 0.3061826634191469 -0.016109414546854165 0.42654103717120084
0.3982749887973666 -0.0402003916623131 -0.0835493358768264 0.20187760387718243 0.28131358916268046 -0.0748850791728569 0.36388317503921663 -0.12083228697356263
0.04080983483836709 0.4160669700003965 0.1344978830318379 -0.011119708767955311 -0.16497304956166142 -0.3663237203472381 0.15672183246199564 -0.2837721645663656
0.01980969976682892 0.3095592696223001 -0.07546012020387383 -0.016299411246177765 -0.2353808996799148 -0.07253501067899192 -0.13643882123620926 0.6168327276954559
0.31736541612178343 0.005719435216283612 -0.20747763534996805 0.006954277008491172 -0.008994806004705435 0.5134886257920687 -0.22349854849323383 0.10974863937235968
0.05339161397572769 0.12369215393301966 0.012909122333287467 -0.010276169792802518 -0.01401591759302066 -0.2232137171263248 -0.25494911051132435 -0.2224302159337786
-0.12958436396479187 0.6281459982755937 0.04808692080872921 -0.09143243498096568 -0.3672148647523966 -0.4901567379688162 0.1395318067324774 0.8077587029370052
0.33438475317293503 -0.08733515860025362 0.0996963296040035 -0.11465027168821994 0.027721301145526667 -0.031882438832722966 0.1952895529944291 0.07295259255441051
0.11390530369431452 -0.09217280554180417 -0.024579192368463385 -0.5417167303226422 -0.24521247796262555 -0.27715280661332237 -0.11553686324720584 -0.274017862205908
0.468110701208865 0.07362568737889251 0.29668912340263937 0.24248774978790377 -0.2919228383548616 -0.012829427657797205 -0.23767911810492331 -0.5200941991452253
-0.10647932009242062 -0.0749185921673408 0.0807528208841525 0.04339931408362154 -0.0734483473663636 -0.16374698798661286 0.012937118052767866 0.24500138660478102
-0.03742391529554821 0.02267941847429057 0.11064607841027152 0.12404903177870581 0.09535495618888562 -0.04489958422344974 -0.09300229281137601 -0.021655574592855612
-0.011273151004981765 0.01617021844487714 0.6369804995330389 0.5055014396971435 -0.03486516169498964 0.215010185648228 0.0658734023361164 0.1659081383612951
0.11758855195567088 0.4034013019588608 0.42859581315197326 -0.27419111839312155 -0.2433916713582192 -0.06305060925527074 0.09575526510204314 0.2563941691137792
0.2722155872267004 -0.48994902093845505 0.1204811779327976 -0.07647930254689418 -0.006220007801938976 -0.21465795381513492 -0.012079834872867902 0.17948780481307394
-0.17790741009430666 0.3807785561361358 0.04592215250684651 0.22648992476866836 0.1041028117646647 0.03195106050560589 0.24131598358838435 -0.24698777386220827
0.22582464428068783 0.14089225965440255 -0.24967981456587268 0.1175188888343914 0.030371712281684594 -0.22475636167440696 0.12497580407078838 -0.5866249093143884
-0.5610850636867573 0.09470895058671958 -0.0841090049246985 -0.24499865758252123 -0.346620258961537 0.020114270997030403 0.05717429752454391 -0.07063998110054612
0.23965170781808598 0.22691126340810344 0.19955156905427973 0.16460975578270898 -0.3407769036474808 0.0828603250605792 -0.2697716086556438 -0.17937446385933653
0.005024577761882306 -0.4383845437688235 -0.10152023636727753 -0.05785681814185576 0.07340231719655137 0.02425330408800175 -0.029331232572000293 -0.13129360227037742
0.16385099090966185 0.38084817871193366 -0.0849481663052929 0.011605362592043342 -0.127138058940759 0.0786385309262523 0.11638550123173036 -0.001783561683623047
-0.2497538671962039 0.2549817769275398 0.19846504343309543 -0.15767893126962684 0.0020971567887639354 0.17391209093856996 -0.43197534818710825 0.10407526021789462
